2026-03-20 01:20:54,102 | INFO | deep_q_network | Initializing constructor for _QModel, Network: Sequential(
  (0): Linear(in_features=6, out_features=64, bias=True)
  (1): ReLU()
  (2): Linear(in_features=64, out_features=64, bias=True)
  (3): ReLU()
  (4): Linear(in_features=64, out_features=4, bias=True)
)
2026-03-20 01:20:54,141 | INFO | deep_q_network | Initializing constructor for _QModel, Network: Sequential(
  (0): Linear(in_features=6, out_features=64, bias=True)
  (1): ReLU()
  (2): Linear(in_features=64, out_features=64, bias=True)
  (3): ReLU()
  (4): Linear(in_features=64, out_features=4, bias=True)
)
2026-03-20 01:20:54,693 | INFO | deep_q_network | Initializing constructor for DeepQNetwork, State size: 6, Action size: 4, Alpha: 0.001, Gamma: 0.95, Epsilon: 1.0, Epsilon Decay: 0.995, Epsilon Min: 0.05, Batch Size: 32, Target Update Frequency: 25, State Method: get_dqn_state, Memory: deque([], maxlen=10000), Device: cuda, Q network: _QModel(
  (network): Sequential(
    (0): Linear(in_features=6, out_features=64, bias=True)
    (1): ReLU()
    (2): Linear(in_features=64, out_features=64, bias=True)
    (3): ReLU()
    (4): Linear(in_features=64, out_features=4, bias=True)
  )
), Target Network: _QModel(
  (network): Sequential(
    (0): Linear(in_features=6, out_features=64, bias=True)
    (1): ReLU()
    (2): Linear(in_features=64, out_features=64, bias=True)
    (3): ReLU()
    (4): Linear(in_features=64, out_features=4, bias=True)
  )
), Optimizer: Adam (
Parameter Group 0
    amsgrad: False
    betas: (0.9, 0.999)
    capturable: False
    decoupled_weight_decay: False
    differentiable: False
    eps: 1e-08
    foreach: None
    fused: None
    lr: 0.001
    maximize: False
    weight_decay: 0
), Loss Function: MSELoss()
2026-03-20 01:21:29,789 | INFO | deep_q_network | Initializing constructor for _QModel, Network: Sequential(
  (0): Linear(in_features=6, out_features=64, bias=True)
  (1): ReLU()
  (2): Linear(in_features=64, out_features=64, bias=True)
  (3): ReLU()
  (4): Linear(in_features=64, out_features=4, bias=True)
)
2026-03-20 01:21:29,790 | INFO | deep_q_network | Initializing constructor for _QModel, Network: Sequential(
  (0): Linear(in_features=6, out_features=64, bias=True)
  (1): ReLU()
  (2): Linear(in_features=64, out_features=64, bias=True)
  (3): ReLU()
  (4): Linear(in_features=64, out_features=4, bias=True)
)
2026-03-20 01:21:29,790 | INFO | deep_q_network | Initializing constructor for DeepQNetwork, State size: 6, Action size: 4, Alpha: 0.001, Gamma: 0.95, Epsilon: 1.0, Epsilon Decay: 0.995, Epsilon Min: 0.05, Batch Size: 32, Target Update Frequency: 25, State Method: get_dqn_state, Memory: deque([], maxlen=10000), Device: cuda, Q network: _QModel(
  (network): Sequential(
    (0): Linear(in_features=6, out_features=64, bias=True)
    (1): ReLU()
    (2): Linear(in_features=64, out_features=64, bias=True)
    (3): ReLU()
    (4): Linear(in_features=64, out_features=4, bias=True)
  )
), Target Network: _QModel(
  (network): Sequential(
    (0): Linear(in_features=6, out_features=64, bias=True)
    (1): ReLU()
    (2): Linear(in_features=64, out_features=64, bias=True)
    (3): ReLU()
    (4): Linear(in_features=64, out_features=4, bias=True)
  )
), Optimizer: Adam (
Parameter Group 0
    amsgrad: False
    betas: (0.9, 0.999)
    capturable: False
    decoupled_weight_decay: False
    differentiable: False
    eps: 1e-08
    foreach: None
    fused: None
    lr: 0.001
    maximize: False
    weight_decay: 0
), Loss Function: MSELoss()
2026-03-20 01:21:46,612 | INFO | deep_q_network | Initializing constructor for _QModel, Network: Sequential(
  (0): Linear(in_features=6, out_features=64, bias=True)
  (1): ReLU()
  (2): Linear(in_features=64, out_features=64, bias=True)
  (3): ReLU()
  (4): Linear(in_features=64, out_features=4, bias=True)
)
2026-03-20 01:21:46,612 | INFO | deep_q_network | Initializing constructor for _QModel, Network: Sequential(
  (0): Linear(in_features=6, out_features=64, bias=True)
  (1): ReLU()
  (2): Linear(in_features=64, out_features=64, bias=True)
  (3): ReLU()
  (4): Linear(in_features=64, out_features=4, bias=True)
)
2026-03-20 01:21:46,613 | INFO | deep_q_network | Initializing constructor for DeepQNetwork, State size: 6, Action size: 4, Alpha: 0.001, Gamma: 0.95, Epsilon: 1.0, Epsilon Decay: 0.995, Epsilon Min: 0.05, Batch Size: 32, Target Update Frequency: 25, State Method: get_dqn_state, Memory: deque([], maxlen=10000), Device: cuda, Q network: _QModel(
  (network): Sequential(
    (0): Linear(in_features=6, out_features=64, bias=True)
    (1): ReLU()
    (2): Linear(in_features=64, out_features=64, bias=True)
    (3): ReLU()
    (4): Linear(in_features=64, out_features=4, bias=True)
  )
), Target Network: _QModel(
  (network): Sequential(
    (0): Linear(in_features=6, out_features=64, bias=True)
    (1): ReLU()
    (2): Linear(in_features=64, out_features=64, bias=True)
    (3): ReLU()
    (4): Linear(in_features=64, out_features=4, bias=True)
  )
), Optimizer: Adam (
Parameter Group 0
    amsgrad: False
    betas: (0.9, 0.999)
    capturable: False
    decoupled_weight_decay: False
    differentiable: False
    eps: 1e-08
    foreach: None
    fused: None
    lr: 0.001
    maximize: False
    weight_decay: 0
), Loss Function: MSELoss()
2026-03-20 01:22:15,348 | INFO | deep_q_network | Initializing constructor for _QModel, Network: Sequential(
  (0): Linear(in_features=6, out_features=64, bias=True)
  (1): ReLU()
  (2): Linear(in_features=64, out_features=64, bias=True)
  (3): ReLU()
  (4): Linear(in_features=64, out_features=4, bias=True)
)
2026-03-20 01:22:15,349 | INFO | deep_q_network | Initializing constructor for _QModel, Network: Sequential(
  (0): Linear(in_features=6, out_features=64, bias=True)
  (1): ReLU()
  (2): Linear(in_features=64, out_features=64, bias=True)
  (3): ReLU()
  (4): Linear(in_features=64, out_features=4, bias=True)
)
2026-03-20 01:22:15,350 | INFO | deep_q_network | Initializing constructor for DeepQNetwork, State size: 6, Action size: 4, Alpha: 0.001, Gamma: 0.95, Epsilon: 1.0, Epsilon Decay: 0.995, Epsilon Min: 0.05, Batch Size: 32, Target Update Frequency: 25, State Method: get_dqn_state, Memory: deque([], maxlen=10000), Device: cuda, Q network: _QModel(
  (network): Sequential(
    (0): Linear(in_features=6, out_features=64, bias=True)
    (1): ReLU()
    (2): Linear(in_features=64, out_features=64, bias=True)
    (3): ReLU()
    (4): Linear(in_features=64, out_features=4, bias=True)
  )
), Target Network: _QModel(
  (network): Sequential(
    (0): Linear(in_features=6, out_features=64, bias=True)
    (1): ReLU()
    (2): Linear(in_features=64, out_features=64, bias=True)
    (3): ReLU()
    (4): Linear(in_features=64, out_features=4, bias=True)
  )
), Optimizer: Adam (
Parameter Group 0
    amsgrad: False
    betas: (0.9, 0.999)
    capturable: False
    decoupled_weight_decay: False
    differentiable: False
    eps: 1e-08
    foreach: None
    fused: None
    lr: 0.001
    maximize: False
    weight_decay: 0
), Loss Function: MSELoss()
2026-03-20 01:22:29,821 | INFO | deep_q_network | Initializing constructor for _QModel, Network: Sequential(
  (0): Linear(in_features=6, out_features=64, bias=True)
  (1): ReLU()
  (2): Linear(in_features=64, out_features=64, bias=True)
  (3): ReLU()
  (4): Linear(in_features=64, out_features=4, bias=True)
)
2026-03-20 01:22:29,822 | INFO | deep_q_network | Initializing constructor for _QModel, Network: Sequential(
  (0): Linear(in_features=6, out_features=64, bias=True)
  (1): ReLU()
  (2): Linear(in_features=64, out_features=64, bias=True)
  (3): ReLU()
  (4): Linear(in_features=64, out_features=4, bias=True)
)
2026-03-20 01:22:29,823 | INFO | deep_q_network | Initializing constructor for DeepQNetwork, State size: 6, Action size: 4, Alpha: 0.001, Gamma: 0.95, Epsilon: 1.0, Epsilon Decay: 0.995, Epsilon Min: 0.05, Batch Size: 32, Target Update Frequency: 25, State Method: get_dqn_state, Memory: deque([], maxlen=10000), Device: cuda, Q network: _QModel(
  (network): Sequential(
    (0): Linear(in_features=6, out_features=64, bias=True)
    (1): ReLU()
    (2): Linear(in_features=64, out_features=64, bias=True)
    (3): ReLU()
    (4): Linear(in_features=64, out_features=4, bias=True)
  )
), Target Network: _QModel(
  (network): Sequential(
    (0): Linear(in_features=6, out_features=64, bias=True)
    (1): ReLU()
    (2): Linear(in_features=64, out_features=64, bias=True)
    (3): ReLU()
    (4): Linear(in_features=64, out_features=4, bias=True)
  )
), Optimizer: Adam (
Parameter Group 0
    amsgrad: False
    betas: (0.9, 0.999)
    capturable: False
    decoupled_weight_decay: False
    differentiable: False
    eps: 1e-08
    foreach: None
    fused: None
    lr: 0.001
    maximize: False
    weight_decay: 0
), Loss Function: MSELoss()
2026-03-20 01:22:54,557 | INFO | deep_q_network | Initializing constructor for _QModel, Network: Sequential(
  (0): Linear(in_features=6, out_features=64, bias=True)
  (1): ReLU()
  (2): Linear(in_features=64, out_features=64, bias=True)
  (3): ReLU()
  (4): Linear(in_features=64, out_features=4, bias=True)
)
2026-03-20 01:22:54,558 | INFO | deep_q_network | Initializing constructor for _QModel, Network: Sequential(
  (0): Linear(in_features=6, out_features=64, bias=True)
  (1): ReLU()
  (2): Linear(in_features=64, out_features=64, bias=True)
  (3): ReLU()
  (4): Linear(in_features=64, out_features=4, bias=True)
)
2026-03-20 01:22:54,559 | INFO | deep_q_network | Initializing constructor for DeepQNetwork, State size: 6, Action size: 4, Alpha: 0.001, Gamma: 0.95, Epsilon: 1.0, Epsilon Decay: 0.995, Epsilon Min: 0.05, Batch Size: 32, Target Update Frequency: 25, State Method: get_dqn_state, Memory: deque([], maxlen=10000), Device: cuda, Q network: _QModel(
  (network): Sequential(
    (0): Linear(in_features=6, out_features=64, bias=True)
    (1): ReLU()
    (2): Linear(in_features=64, out_features=64, bias=True)
    (3): ReLU()
    (4): Linear(in_features=64, out_features=4, bias=True)
  )
), Target Network: _QModel(
  (network): Sequential(
    (0): Linear(in_features=6, out_features=64, bias=True)
    (1): ReLU()
    (2): Linear(in_features=64, out_features=64, bias=True)
    (3): ReLU()
    (4): Linear(in_features=64, out_features=4, bias=True)
  )
), Optimizer: Adam (
Parameter Group 0
    amsgrad: False
    betas: (0.9, 0.999)
    capturable: False
    decoupled_weight_decay: False
    differentiable: False
    eps: 1e-08
    foreach: None
    fused: None
    lr: 0.001
    maximize: False
    weight_decay: 0
), Loss Function: MSELoss()
2026-03-20 01:23:04,607 | INFO | deep_q_network | Initializing constructor for _QModel, Network: Sequential(
  (0): Linear(in_features=6, out_features=64, bias=True)
  (1): ReLU()
  (2): Linear(in_features=64, out_features=64, bias=True)
  (3): ReLU()
  (4): Linear(in_features=64, out_features=4, bias=True)
)
2026-03-20 01:23:04,608 | INFO | deep_q_network | Initializing constructor for _QModel, Network: Sequential(
  (0): Linear(in_features=6, out_features=64, bias=True)
  (1): ReLU()
  (2): Linear(in_features=64, out_features=64, bias=True)
  (3): ReLU()
  (4): Linear(in_features=64, out_features=4, bias=True)
)
2026-03-20 01:23:04,608 | INFO | deep_q_network | Initializing constructor for DeepQNetwork, State size: 6, Action size: 4, Alpha: 0.001, Gamma: 0.95, Epsilon: 1.0, Epsilon Decay: 0.995, Epsilon Min: 0.05, Batch Size: 32, Target Update Frequency: 25, State Method: get_dqn_state, Memory: deque([], maxlen=10000), Device: cuda, Q network: _QModel(
  (network): Sequential(
    (0): Linear(in_features=6, out_features=64, bias=True)
    (1): ReLU()
    (2): Linear(in_features=64, out_features=64, bias=True)
    (3): ReLU()
    (4): Linear(in_features=64, out_features=4, bias=True)
  )
), Target Network: _QModel(
  (network): Sequential(
    (0): Linear(in_features=6, out_features=64, bias=True)
    (1): ReLU()
    (2): Linear(in_features=64, out_features=64, bias=True)
    (3): ReLU()
    (4): Linear(in_features=64, out_features=4, bias=True)
  )
), Optimizer: Adam (
Parameter Group 0
    amsgrad: False
    betas: (0.9, 0.999)
    capturable: False
    decoupled_weight_decay: False
    differentiable: False
    eps: 1e-08
    foreach: None
    fused: None
    lr: 0.001
    maximize: False
    weight_decay: 0
), Loss Function: MSELoss()
2026-03-20 01:23:19,308 | INFO | deep_q_network | Initializing constructor for _QModel, Network: Sequential(
  (0): Linear(in_features=6, out_features=64, bias=True)
  (1): ReLU()
  (2): Linear(in_features=64, out_features=64, bias=True)
  (3): ReLU()
  (4): Linear(in_features=64, out_features=4, bias=True)
)
2026-03-20 01:23:19,309 | INFO | deep_q_network | Initializing constructor for _QModel, Network: Sequential(
  (0): Linear(in_features=6, out_features=64, bias=True)
  (1): ReLU()
  (2): Linear(in_features=64, out_features=64, bias=True)
  (3): ReLU()
  (4): Linear(in_features=64, out_features=4, bias=True)
)
2026-03-20 01:23:19,310 | INFO | deep_q_network | Initializing constructor for DeepQNetwork, State size: 6, Action size: 4, Alpha: 0.001, Gamma: 0.95, Epsilon: 1.0, Epsilon Decay: 0.995, Epsilon Min: 0.05, Batch Size: 32, Target Update Frequency: 25, State Method: get_dqn_state, Memory: deque([], maxlen=10000), Device: cuda, Q network: _QModel(
  (network): Sequential(
    (0): Linear(in_features=6, out_features=64, bias=True)
    (1): ReLU()
    (2): Linear(in_features=64, out_features=64, bias=True)
    (3): ReLU()
    (4): Linear(in_features=64, out_features=4, bias=True)
  )
), Target Network: _QModel(
  (network): Sequential(
    (0): Linear(in_features=6, out_features=64, bias=True)
    (1): ReLU()
    (2): Linear(in_features=64, out_features=64, bias=True)
    (3): ReLU()
    (4): Linear(in_features=64, out_features=4, bias=True)
  )
), Optimizer: Adam (
Parameter Group 0
    amsgrad: False
    betas: (0.9, 0.999)
    capturable: False
    decoupled_weight_decay: False
    differentiable: False
    eps: 1e-08
    foreach: None
    fused: None
    lr: 0.001
    maximize: False
    weight_decay: 0
), Loss Function: MSELoss()
