2026-03-20 00:28:21,097 | INFO | deep_q_network | Initializing constructor for _QModel, Network: Sequential(
  (0): Linear(in_features=6, out_features=64, bias=True)
  (1): ReLU()
  (2): Linear(in_features=64, out_features=64, bias=True)
  (3): ReLU()
  (4): Linear(in_features=64, out_features=4, bias=True)
)
2026-03-20 00:28:21,130 | INFO | deep_q_network | Initializing constructor for _QModel, Network: Sequential(
  (0): Linear(in_features=6, out_features=64, bias=True)
  (1): ReLU()
  (2): Linear(in_features=64, out_features=64, bias=True)
  (3): ReLU()
  (4): Linear(in_features=64, out_features=4, bias=True)
)
2026-03-20 00:28:21,612 | INFO | deep_q_network | Initializing constructor for DeepQNetwork, State size: 6, Action size: 4, Alpha: 0.001, Gamma: 0.95, Epsilon: 1.0, Epsilon Decay: 0.995, Epsilon Min: 0.05, Batch Size: 32, Target Update Frequency: 25, State Method: get_dqn_state, Memory: deque([], maxlen=10000), Device: cuda, Q network: _QModel(
  (network): Sequential(
    (0): Linear(in_features=6, out_features=64, bias=True)
    (1): ReLU()
    (2): Linear(in_features=64, out_features=64, bias=True)
    (3): ReLU()
    (4): Linear(in_features=64, out_features=4, bias=True)
  )
), Target Network: _QModel(
  (network): Sequential(
    (0): Linear(in_features=6, out_features=64, bias=True)
    (1): ReLU()
    (2): Linear(in_features=64, out_features=64, bias=True)
    (3): ReLU()
    (4): Linear(in_features=64, out_features=4, bias=True)
  )
), Optimizer: Adam (
Parameter Group 0
    amsgrad: False
    betas: (0.9, 0.999)
    capturable: False
    decoupled_weight_decay: False
    differentiable: False
    eps: 1e-08
    foreach: None
    fused: None
    lr: 0.001
    maximize: False
    weight_decay: 0
), Loss Function: MSELoss()
2026-03-20 00:28:50,727 | INFO | deep_q_network | Initializing constructor for _QModel, Network: Sequential(
  (0): Linear(in_features=6, out_features=64, bias=True)
  (1): ReLU()
  (2): Linear(in_features=64, out_features=64, bias=True)
  (3): ReLU()
  (4): Linear(in_features=64, out_features=4, bias=True)
)
2026-03-20 00:28:50,728 | INFO | deep_q_network | Initializing constructor for _QModel, Network: Sequential(
  (0): Linear(in_features=6, out_features=64, bias=True)
  (1): ReLU()
  (2): Linear(in_features=64, out_features=64, bias=True)
  (3): ReLU()
  (4): Linear(in_features=64, out_features=4, bias=True)
)
2026-03-20 00:28:50,728 | INFO | deep_q_network | Initializing constructor for DeepQNetwork, State size: 6, Action size: 4, Alpha: 0.001, Gamma: 0.95, Epsilon: 1.0, Epsilon Decay: 0.995, Epsilon Min: 0.05, Batch Size: 32, Target Update Frequency: 25, State Method: get_dqn_state, Memory: deque([], maxlen=10000), Device: cuda, Q network: _QModel(
  (network): Sequential(
    (0): Linear(in_features=6, out_features=64, bias=True)
    (1): ReLU()
    (2): Linear(in_features=64, out_features=64, bias=True)
    (3): ReLU()
    (4): Linear(in_features=64, out_features=4, bias=True)
  )
), Target Network: _QModel(
  (network): Sequential(
    (0): Linear(in_features=6, out_features=64, bias=True)
    (1): ReLU()
    (2): Linear(in_features=64, out_features=64, bias=True)
    (3): ReLU()
    (4): Linear(in_features=64, out_features=4, bias=True)
  )
), Optimizer: Adam (
Parameter Group 0
    amsgrad: False
    betas: (0.9, 0.999)
    capturable: False
    decoupled_weight_decay: False
    differentiable: False
    eps: 1e-08
    foreach: None
    fused: None
    lr: 0.001
    maximize: False
    weight_decay: 0
), Loss Function: MSELoss()
2026-03-20 00:29:07,464 | INFO | deep_q_network | Initializing constructor for _QModel, Network: Sequential(
  (0): Linear(in_features=6, out_features=64, bias=True)
  (1): ReLU()
  (2): Linear(in_features=64, out_features=64, bias=True)
  (3): ReLU()
  (4): Linear(in_features=64, out_features=4, bias=True)
)
2026-03-20 00:29:07,464 | INFO | deep_q_network | Initializing constructor for _QModel, Network: Sequential(
  (0): Linear(in_features=6, out_features=64, bias=True)
  (1): ReLU()
  (2): Linear(in_features=64, out_features=64, bias=True)
  (3): ReLU()
  (4): Linear(in_features=64, out_features=4, bias=True)
)
2026-03-20 00:29:07,465 | INFO | deep_q_network | Initializing constructor for DeepQNetwork, State size: 6, Action size: 4, Alpha: 0.001, Gamma: 0.95, Epsilon: 1.0, Epsilon Decay: 0.995, Epsilon Min: 0.05, Batch Size: 32, Target Update Frequency: 25, State Method: get_dqn_state, Memory: deque([], maxlen=10000), Device: cuda, Q network: _QModel(
  (network): Sequential(
    (0): Linear(in_features=6, out_features=64, bias=True)
    (1): ReLU()
    (2): Linear(in_features=64, out_features=64, bias=True)
    (3): ReLU()
    (4): Linear(in_features=64, out_features=4, bias=True)
  )
), Target Network: _QModel(
  (network): Sequential(
    (0): Linear(in_features=6, out_features=64, bias=True)
    (1): ReLU()
    (2): Linear(in_features=64, out_features=64, bias=True)
    (3): ReLU()
    (4): Linear(in_features=64, out_features=4, bias=True)
  )
), Optimizer: Adam (
Parameter Group 0
    amsgrad: False
    betas: (0.9, 0.999)
    capturable: False
    decoupled_weight_decay: False
    differentiable: False
    eps: 1e-08
    foreach: None
    fused: None
    lr: 0.001
    maximize: False
    weight_decay: 0
), Loss Function: MSELoss()
2026-03-20 00:29:38,009 | INFO | deep_q_network | Initializing constructor for _QModel, Network: Sequential(
  (0): Linear(in_features=6, out_features=64, bias=True)
  (1): ReLU()
  (2): Linear(in_features=64, out_features=64, bias=True)
  (3): ReLU()
  (4): Linear(in_features=64, out_features=4, bias=True)
)
2026-03-20 00:29:38,009 | INFO | deep_q_network | Initializing constructor for _QModel, Network: Sequential(
  (0): Linear(in_features=6, out_features=64, bias=True)
  (1): ReLU()
  (2): Linear(in_features=64, out_features=64, bias=True)
  (3): ReLU()
  (4): Linear(in_features=64, out_features=4, bias=True)
)
2026-03-20 00:29:38,010 | INFO | deep_q_network | Initializing constructor for DeepQNetwork, State size: 6, Action size: 4, Alpha: 0.001, Gamma: 0.95, Epsilon: 1.0, Epsilon Decay: 0.995, Epsilon Min: 0.05, Batch Size: 32, Target Update Frequency: 25, State Method: get_dqn_state, Memory: deque([], maxlen=10000), Device: cuda, Q network: _QModel(
  (network): Sequential(
    (0): Linear(in_features=6, out_features=64, bias=True)
    (1): ReLU()
    (2): Linear(in_features=64, out_features=64, bias=True)
    (3): ReLU()
    (4): Linear(in_features=64, out_features=4, bias=True)
  )
), Target Network: _QModel(
  (network): Sequential(
    (0): Linear(in_features=6, out_features=64, bias=True)
    (1): ReLU()
    (2): Linear(in_features=64, out_features=64, bias=True)
    (3): ReLU()
    (4): Linear(in_features=64, out_features=4, bias=True)
  )
), Optimizer: Adam (
Parameter Group 0
    amsgrad: False
    betas: (0.9, 0.999)
    capturable: False
    decoupled_weight_decay: False
    differentiable: False
    eps: 1e-08
    foreach: None
    fused: None
    lr: 0.001
    maximize: False
    weight_decay: 0
), Loss Function: MSELoss()
2026-03-20 00:29:56,500 | INFO | deep_q_network | Initializing constructor for _QModel, Network: Sequential(
  (0): Linear(in_features=6, out_features=64, bias=True)
  (1): ReLU()
  (2): Linear(in_features=64, out_features=64, bias=True)
  (3): ReLU()
  (4): Linear(in_features=64, out_features=4, bias=True)
)
2026-03-20 00:29:56,503 | INFO | deep_q_network | Initializing constructor for _QModel, Network: Sequential(
  (0): Linear(in_features=6, out_features=64, bias=True)
  (1): ReLU()
  (2): Linear(in_features=64, out_features=64, bias=True)
  (3): ReLU()
  (4): Linear(in_features=64, out_features=4, bias=True)
)
2026-03-20 00:29:56,503 | INFO | deep_q_network | Initializing constructor for DeepQNetwork, State size: 6, Action size: 4, Alpha: 0.001, Gamma: 0.95, Epsilon: 1.0, Epsilon Decay: 0.995, Epsilon Min: 0.05, Batch Size: 32, Target Update Frequency: 25, State Method: get_dqn_state, Memory: deque([], maxlen=10000), Device: cuda, Q network: _QModel(
  (network): Sequential(
    (0): Linear(in_features=6, out_features=64, bias=True)
    (1): ReLU()
    (2): Linear(in_features=64, out_features=64, bias=True)
    (3): ReLU()
    (4): Linear(in_features=64, out_features=4, bias=True)
  )
), Target Network: _QModel(
  (network): Sequential(
    (0): Linear(in_features=6, out_features=64, bias=True)
    (1): ReLU()
    (2): Linear(in_features=64, out_features=64, bias=True)
    (3): ReLU()
    (4): Linear(in_features=64, out_features=4, bias=True)
  )
), Optimizer: Adam (
Parameter Group 0
    amsgrad: False
    betas: (0.9, 0.999)
    capturable: False
    decoupled_weight_decay: False
    differentiable: False
    eps: 1e-08
    foreach: None
    fused: None
    lr: 0.001
    maximize: False
    weight_decay: 0
), Loss Function: MSELoss()
2026-03-20 00:30:20,701 | INFO | deep_q_network | Initializing constructor for _QModel, Network: Sequential(
  (0): Linear(in_features=6, out_features=64, bias=True)
  (1): ReLU()
  (2): Linear(in_features=64, out_features=64, bias=True)
  (3): ReLU()
  (4): Linear(in_features=64, out_features=4, bias=True)
)
2026-03-20 00:30:20,702 | INFO | deep_q_network | Initializing constructor for _QModel, Network: Sequential(
  (0): Linear(in_features=6, out_features=64, bias=True)
  (1): ReLU()
  (2): Linear(in_features=64, out_features=64, bias=True)
  (3): ReLU()
  (4): Linear(in_features=64, out_features=4, bias=True)
)
2026-03-20 00:30:20,702 | INFO | deep_q_network | Initializing constructor for DeepQNetwork, State size: 6, Action size: 4, Alpha: 0.001, Gamma: 0.95, Epsilon: 1.0, Epsilon Decay: 0.995, Epsilon Min: 0.05, Batch Size: 32, Target Update Frequency: 25, State Method: get_dqn_state, Memory: deque([], maxlen=10000), Device: cuda, Q network: _QModel(
  (network): Sequential(
    (0): Linear(in_features=6, out_features=64, bias=True)
    (1): ReLU()
    (2): Linear(in_features=64, out_features=64, bias=True)
    (3): ReLU()
    (4): Linear(in_features=64, out_features=4, bias=True)
  )
), Target Network: _QModel(
  (network): Sequential(
    (0): Linear(in_features=6, out_features=64, bias=True)
    (1): ReLU()
    (2): Linear(in_features=64, out_features=64, bias=True)
    (3): ReLU()
    (4): Linear(in_features=64, out_features=4, bias=True)
  )
), Optimizer: Adam (
Parameter Group 0
    amsgrad: False
    betas: (0.9, 0.999)
    capturable: False
    decoupled_weight_decay: False
    differentiable: False
    eps: 1e-08
    foreach: None
    fused: None
    lr: 0.001
    maximize: False
    weight_decay: 0
), Loss Function: MSELoss()
2026-03-20 00:30:32,155 | INFO | deep_q_network | Initializing constructor for _QModel, Network: Sequential(
  (0): Linear(in_features=6, out_features=64, bias=True)
  (1): ReLU()
  (2): Linear(in_features=64, out_features=64, bias=True)
  (3): ReLU()
  (4): Linear(in_features=64, out_features=4, bias=True)
)
2026-03-20 00:30:32,156 | INFO | deep_q_network | Initializing constructor for _QModel, Network: Sequential(
  (0): Linear(in_features=6, out_features=64, bias=True)
  (1): ReLU()
  (2): Linear(in_features=64, out_features=64, bias=True)
  (3): ReLU()
  (4): Linear(in_features=64, out_features=4, bias=True)
)
2026-03-20 00:30:32,156 | INFO | deep_q_network | Initializing constructor for DeepQNetwork, State size: 6, Action size: 4, Alpha: 0.001, Gamma: 0.95, Epsilon: 1.0, Epsilon Decay: 0.995, Epsilon Min: 0.05, Batch Size: 32, Target Update Frequency: 25, State Method: get_dqn_state, Memory: deque([], maxlen=10000), Device: cuda, Q network: _QModel(
  (network): Sequential(
    (0): Linear(in_features=6, out_features=64, bias=True)
    (1): ReLU()
    (2): Linear(in_features=64, out_features=64, bias=True)
    (3): ReLU()
    (4): Linear(in_features=64, out_features=4, bias=True)
  )
), Target Network: _QModel(
  (network): Sequential(
    (0): Linear(in_features=6, out_features=64, bias=True)
    (1): ReLU()
    (2): Linear(in_features=64, out_features=64, bias=True)
    (3): ReLU()
    (4): Linear(in_features=64, out_features=4, bias=True)
  )
), Optimizer: Adam (
Parameter Group 0
    amsgrad: False
    betas: (0.9, 0.999)
    capturable: False
    decoupled_weight_decay: False
    differentiable: False
    eps: 1e-08
    foreach: None
    fused: None
    lr: 0.001
    maximize: False
    weight_decay: 0
), Loss Function: MSELoss()
2026-03-20 00:30:47,218 | INFO | deep_q_network | Initializing constructor for _QModel, Network: Sequential(
  (0): Linear(in_features=6, out_features=64, bias=True)
  (1): ReLU()
  (2): Linear(in_features=64, out_features=64, bias=True)
  (3): ReLU()
  (4): Linear(in_features=64, out_features=4, bias=True)
)
2026-03-20 00:30:47,218 | INFO | deep_q_network | Initializing constructor for _QModel, Network: Sequential(
  (0): Linear(in_features=6, out_features=64, bias=True)
  (1): ReLU()
  (2): Linear(in_features=64, out_features=64, bias=True)
  (3): ReLU()
  (4): Linear(in_features=64, out_features=4, bias=True)
)
2026-03-20 00:30:47,219 | INFO | deep_q_network | Initializing constructor for DeepQNetwork, State size: 6, Action size: 4, Alpha: 0.001, Gamma: 0.95, Epsilon: 1.0, Epsilon Decay: 0.995, Epsilon Min: 0.05, Batch Size: 32, Target Update Frequency: 25, State Method: get_dqn_state, Memory: deque([], maxlen=10000), Device: cuda, Q network: _QModel(
  (network): Sequential(
    (0): Linear(in_features=6, out_features=64, bias=True)
    (1): ReLU()
    (2): Linear(in_features=64, out_features=64, bias=True)
    (3): ReLU()
    (4): Linear(in_features=64, out_features=4, bias=True)
  )
), Target Network: _QModel(
  (network): Sequential(
    (0): Linear(in_features=6, out_features=64, bias=True)
    (1): ReLU()
    (2): Linear(in_features=64, out_features=64, bias=True)
    (3): ReLU()
    (4): Linear(in_features=64, out_features=4, bias=True)
  )
), Optimizer: Adam (
Parameter Group 0
    amsgrad: False
    betas: (0.9, 0.999)
    capturable: False
    decoupled_weight_decay: False
    differentiable: False
    eps: 1e-08
    foreach: None
    fused: None
    lr: 0.001
    maximize: False
    weight_decay: 0
), Loss Function: MSELoss()
